pretrained/5_best_model.pt (torch, 98062 bytes, 18 tensors)

encoder.gcs.0.weight f4 [32, 12]
000000 3c cd 81 3f b6 3c 74 3e a9 53 ee bf 02 06 fd bf
       1.0140758 0.23851284 -1.8619281 -1.9767458
000010 40 a6 f5 bf 3a 47 1a 3f b6 20 3b c0 f1 ad 09 3e
       -1.919136 0.60264933 -2.9238715 0.1344526
000020 c3 13 32 3e 17 cf b3 3d 79 cf 96 3d 41 9e 47 be
       0.17390351 0.08779734 0.07363791 -0.19493963
000030 ff 8e 0c bf e0 4b a6 3d 0e 79 83 bd 90 df 8b 3b
       -0.54905695 0.08119941 -0.06419574 0.004268594
000040 fa d5 cf 3c a7 83 60 3e 6a d1 8b 3f 6d 86 17 3f
       0.025370587 0.21925221 1.0923283 0.5918949
000050 30 83 42 be 7b 97 3f be 47 50 3c be 67 2b 75 be
       -0.18995357 -0.18710129 -0.18389998 -0.23942338
000060 90 a8 fe 3f 1b c3 01 3e db 93 16 3e fa d3 57 3e
       1.9895191 0.12672083 0.1470484 0.21076956
000070 0d 85 fe 3d 44 ca c3 be 0a fb e5 3f ee 1e 01 3f
       0.12427721 -0.38240254 1.7967236 0.5043782
000080 f3 91 0f 3f e5 92 2b c0 4b 05 a9 3e 20 e6 c2 3e
       0.56082076 -2.6808407 0.3301185 0.38066196
000090 3f 00 27 3f de 88 b6 3e 4d bd c7 3e 68 a2 b8 3e
       0.6523475 0.35651296 0.39011613 0.36061406
0000a0 44 29 b0 3e fe b5 3b bf 48 e0 95 3f 54 ab 61 3e
       0.34406483 -0.73324573 1.170907 0.22038013
0000b0 ab 16 89 be 0b a1 3b 3e 7e 1a a7 3d f9 94 fa 3d
       -0.26775107 0.18323152 0.0815935 0.122354455
0000c0 e4 50 74 bf 26 03 95 bb e4 a1 3e bd f7 36 04 be
       -0.9543593 -0.0045474945 -0.04654111 -0.12911592
0000d0 af af 59 3d 69 12 20 3e f8 65 13 3f 85 4b 3e 3f
       0.05314606 0.15632023 0.57577467 0.74333984
0000e0 8a ef 95 3e e7 c7 0f bf 38 91 c8 3e 4d a1 bd 3e
       0.29284316 -0.561644 0.39173293 0.37037125
0000f0 90 0d 59 bf 3f 64 02 3f 02 3c 76 3f 0f 8c 80 3f
       -0.8478632 0.50934213 0.96185315 1.0042742
000100 82 56 af 3e f1 10 03 3e b6 ed 06 bd 9f b3 ce 3e
       0.34245688 0.12799431 -0.032941543 0.40371415
000110 df 92 5e be 19 fb c6 bd 21 92 71 3e 15 13 22 3e
       -0.21735714 -0.09715862 0.235909 0.15827592
000120 01 68 33 3f 84 19 5c 3c d6 bd 94 3d 78 77 ba 3c
       0.7008057 0.013433818 0.07262771 0.022762045
000130 11 1d 09 3d d9 79 97 3e 06 80 63 3f 30 e9 7a 3f
       0.033474986 0.2958515 0.88867223 0.98012066
000140 e1 4c 02 bf a7 7e ca be 67 72 b1 be 84 8b ba be
       -0.5089856 -0.39549753 -0.34657595 -0.36434567
000150 d3 60 7f 3f bb 04 0f bf f7 43 27 bf 1d c8 16 bf
       0.9975712 -0.55866593 -0.6533808 -0.588991
000160 08 13 6e bf 7a ae dc 3e b3 a8 32 bf 93 de 17 bf
       -0.9299779 0.43101865 -0.69788665 -0.59323996
000170 e4 cd 1a 3f 34 26 06 be 1b 01 20 bf 17 03 55 bf
       0.60470414 -0.13100511 -0.62501687 -0.8320784
000180 55 61 89 3f 8f 33 31 be 88 15 ee 3e 60 2b be 3d
       1.0732828 -0.17304824 0.46500802 0.09285617
000190 78 ad 1a be b3 c6 39 be 2f ad 04 be 64 d1 90 be
       -0.15105236 -0.18142204 -0.1295669 -0.28284752
0001a0 57 ba c7 be 6f b5 d4 be 7d a1 94 3f 2d 9f 74 be
       -0.39009354 -0.41544673 1.1611782 -0.23888846
0001b0 84 b7 fa 3e fc ca bd 3e 48 8c 34 3f cd 71 2d 3f
       0.48968136 0.37068927 0.7052655 0.6775177
0001c0 73 8b 84 3e b0 7b 04 be 37 24 93 bf 5d a8 27 3f
       0.2588764 -0.12937808 -1.1495427 0.65491277
0001d0 cd 4d da 3e b3 09 8e 3e de 47 64 bc 23 9d c9 be
       0.42637482 0.27741775 -0.01393315 -0.39377698
0001e0 dc 72 82 bf 61 f4 1e 3e f6 17 8b 3e b4 99 22 3e
       -1.0191302 0.1552291 0.27166718 0.15878946
0001f0 a5 7a 8f 3e 75 b4 d2 be 1b 62 7b be 9e 2a 2f 3d
       0.28023258 -0.41153303 -0.24549143 0.042765252
000200 38 4d 6a 3e 86 fc 20 3f 39 15 e0 bd 90 01 bf 3d
       0.22881019 0.6288532 -0.10941548 0.0932647
000210 3f 79 0b 40 7d 5a 2f 3e d8 e4 91 3e 58 f6 6b 3e
       2.1792753 0.17124362 0.28494906 0.23043191
000220 97 b4 67 3e 47 bd a5 3e 54 a5 13 c0 f3 94 28 bf
       0.22627483 0.3237097 -2.3069658 -0.6585228
000230 cf 10 14 bf 4e 07 0a bf ca f1 0d bf 29 e6 5f 3f
       -0.5783815 -0.53917396 -0.55447066 0.8746057
000240 da f9 12 40 b4 72 12 bf db d1 2c bf 9b 41 0c bf
       2.2964997 -0.57206273 -0.67507714 -0.54787606
000250 aa ff 5c bf 84 9b 8a bd 92 cf c4 bd f7 ff 87 3f
       -0.8632761 -0.067679435 -0.096099034 1.0624989
000260 77 6e 21 bf 78 1e be be 4f 2d 00 bf b5 47 0b bf
       -0.6305918 -0.3713262 -0.50069135 -0.5440629
000270 81 bd 8f bf 12 96 9a be c4 b3 d9 3e 46 04 39 be
       -1.1229707 -0.3019262 0.42519963 -0.18068036
000280 4e e0 ba 3b 4a 60 ff 3e 7b f3 85 3e 57 b6 44 3e
       0.0057030087 0.4987815 0.26162323 0.19210182
000290 40 10 18 be 9d bb c6 3e 42 d6 5d 3d d3 ff db 3c
       -0.14849949 0.38815013 0.05415941 0.026855385
0002a0 4e 33 79 be 12 c7 50 3e 49 4b 23 be ed a7 1f 3e
       -0.24335977 0.2038844 -0.15946688 0.15591402
0002b0 41 60 dd 3d 66 c8 ef 3d e6 d6 83 3e 2d 39 f5 3e
       0.108093746 0.11708145 0.25749892 0.47895184
0002c0 00 00 cf 3e b1 32 de 3e 2f f6 8e bf d3 ba 19 3f
       0.40429688 0.4339805 -1.1168879 0.60050696
0002d0 8b e3 9c be c6 1b 54 3f 6e 29 5d c0 78 d4 59 c0
       -0.30642352 0.8285488 -3.4556537 -3.403593
0002e0 f1 eb 5e c0 36 ff 85 3f 0b 4b b7 c0 fa 0f b9 bd
       -3.4831507 1.0468509 -5.7279105 -0.090362504
0002f0 61 1c aa bc 2f 98 f5 3d 57 3b b2 3c 2f 46 2d 3e
       -0.020765485 0.11991917 0.021756811 0.16921304
000300 13 bf c3 3d bc e0 ee 3e 11 e6 fe 3e 55 f0 ac 3e
       0.09557929 0.46655834 0.49784902 0.3377711
000310 cc 6a 18 3f 57 c8 32 3f cc 5d e2 bb 83 52 ea be
       0.5953796 0.69836944 -0.006908154 -0.45766076
000320 b5 63 10 3f 6f 38 c9 be cc 28 49 3f 5d 10 11 be
       0.5640214 -0.39300868 0.78577876 -0.14166398
000330 dc 6a 77 3f 30 8b b1 3d 64 fe be bd 1c a8 cc 3d
       0.9664743 0.08669126 -0.09325865 0.09993002
000340 dc 01 0c be 86 40 a5 3e b0 c5 d5 be 5a e8 d5 3e
       -0.13672584 0.3227579 -0.41752386 0.41778833
000350 4a 38 58 bf ab 5c 04 3f c3 9e 0c 3f c6 7a 04 3f
       -0.8446089 0.517039 0.5492975 0.5174984
000360 59 18 bc 3f ae c0 a4 bf 8e 40 34 c0 3d 0f 2f c0
       1.469493 -1.2871301 -2.81644 -2.735305
000370 89 32 3c c0 f0 2a 4f 3f a8 23 6e c0 c1 29 ef be
       -2.9405844 0.8092489 -3.7209263 -0.46711543
000380 d4 79 09 3e 97 6f b5 be 6c e4 b9 be 36 74 1d 3f
       0.1342538 -0.354367 -0.36307085 0.6150545
000390 ec 98 24 be 17 79 26 3f ad aa d9 3d 2d 72 36 3d
       -0.1607396 0.6502852 0.10628257 0.04454248
0003a0 27 f6 56 3f ad ee 87 3e ae af 04 bf 7c b5 ed 3e
       0.8396935 0.26549283 -0.51830566 0.46427524
0003b0 6a d5 7f be 06 b3 e8 3e c2 9f fc 3e 61 76 12 be
       -0.24983755 0.45449084 0.49340636 -0.1430297
0003c0 3e d7 6a 3d 75 94 08 be 4f 27 37 be 19 7c 15 be
       0.057334177 -0.13337882 -0.17886089 -0.14598121
0003d0 ab 02 29 be 11 e9 cf 3d 88 2d a7 bd ba be 92 be
       -0.16504924 0.10151876 -0.08162981 -0.28661138
0003e0 28 dc 80 be 1a 6d 41 3f 5d 6b 11 3f 36 69 5c bd
       -0.25167966 0.755571 0.5680445 -0.053811274
0003f0 15 73 14 3e 85 3d c6 3e 76 9e a5 3e fb e2 bb 3e
       0.14497025 0.3871881 0.3234746 0.3669661

encoder.gcs.0.bias f4 [32]
000000 ca 4d 8a be c6 ca 43 3e bf a7 b8 3d be 16 0a 3b
       -0.27012473 0.1912032 0.0901637 0.0021070684
000010 8f 60 86 be 42 c3 c8 be 25 47 0e 3b 7b be 69 3e
       -0.26245543 -0.3921147 0.0021709886 0.22826569
000020 34 26 44 3d 4e 38 26 be 8a 6f a3 3e b2 2b 8b 3c
       0.047887996 -0.16232416 0.31921035 0.016988609
000030 3b c9 98 3e 08 d2 53 be 82 e0 88 3d f8 60 12 3d
       0.29841027 -0.2068559 0.066834465 0.035737008
000040 c2 01 83 be 5f 8e 24 3d dd ee cf bd 1e da 05 bf
       -0.2558728 0.04017484 -0.101529814 -0.52285945
000050 9e 69 e1 bd 25 65 06 bf 02 f5 ae be 83 9e 4e be
       -0.11006473 -0.52498084 -0.341713 -0.20177655
000060 5e 8b 87 3d aa d2 15 be 2b 9a 06 be 80 67 d9 3d
       0.06618379 -0.14631143 -0.13144748 0.10615444
000070 9d 8c f9 3c a0 dc f3 be 66 c5 0c bd fc b5 b7 3d
       0.030462557 -0.4762926 -0.03436794 0.08970258

encoder.gcs.1.weight f4 [64, 32]
000000 bf 1b e6 be 3f d6 b0 3e b7 7d 7a 3c c7 02 28 be
       -0.44943044 0.34538457 0.015288762 -0.1640731
000010 d5 49 5b be 24 7f 31 be 9c b5 73 bc 4d c5 d9 3e
       -0.21414883 -0.17333657 -0.014874842 0.4253334
000020 dc 76 ae 3e fc ca a5 3e 64 89 35 be 63 84 fa be
       0.34075058 0.32381427 -0.17728192 -0.48929128
000030 10 af c9 3d 3b 35 1f bd 7d 03 1d be 7c d3 30 bf
       0.09847844 -0.038869124 -0.15333362 -0.690727
000040 f3 4a ef bd 03 c5 24 3e e5 e1 22 3e 4f 21 70 be
       -0.11684217 0.16090779 0.15906484 -0.23450206
000050 e5 ab 62 3e d8 73 43 bb 22 49 89 3e 25 b6 0d bd
       0.22135885 -0.0029823687 0.26813608 -0.034597535
000060 12 9b a2 bd 1e 13 26 3f b5 ae cf be bf ca bc 3e
       -0.079397336 0.6487292 -0.40562978 0.36873433
000070 b3 33 aa 3d 0d 4c 28 3e 83 19 c1 be d4 11 ab 3e
       0.08310642 0.16435261 -0.37714776 0.3341204
000080 14 bd 5c bd 2d ba d1 be b3 db 82 3e 30 85 90 3e
       -0.053891256 -0.40962353 0.25558242 0.28226614
000090 2c a6 e3 3e 6e a1 2a be 9b 9b 04 3f b3 62 41 3e
       0.44462717 -0.16663143 0.51799935 0.18885307
0000a0 e8 c7 67 be 1f d9 86 be d7 18 6e 3e f3 fe e4 be
       -0.22634852 -0.26337525 0.23251663 -0.4472576
0000b0 88 a0 cd 3e 9e 06 b6 be ee 64 8f 3e 9c 42 f6 bd
       0.40161538 -0.35551924 0.2800669 -0.120244235
0000c0 d6 92 91 3d 10 b2 63 3e 14 c5 4d be 4d 4c 9c be
       0.07108085 0.22235894 -0.2009471 -0.30526963
0000d0 64 3b f8 3d 4c 45 70 be ad 02 8e be 46 7d 57 be
       0.12120703 -0.23463935 -0.27736416 -0.21043882
0000e0 18 10 17 3f e1 4e 2e 3e 2b e5 d0 3d 05 81 a2 3e
       0.5900893 0.17022277 0.1019996 0.3173906
0000f0 15 d1 bc be 3b 39 98 3e 8b a4 06 3e c6 75 74 be
       -0.36878267 0.29731163 0.13148706 -0.23873052
000100 5b 10 80 3e dd fe 6c be 9d c3 c4 3d ac 62 89 bd
       0.25012478 -0.23144098 0.09607623 -0.06708273
000110 b4 9a 1e 3e 8b f7 39 bd 4c 46 ed be 4b 91 0b 3f
       0.15488702 -0.04540209 -0.46342695 0.54518574
000120 98 6b 8a be 89 94 8e 3e 3f 80 9b 3e 79 c8 1a bf
       -0.27035213 0.27847698 0.30371282 -0.60462147
000130 10 57 e3 3e b9 5f 50 3d 00 4f 81 3d e2 71 e3 bd
       0.4440236 0.05087254 0.06313896 -0.11105706
000140 1e ec 0f 3e d4 45 a8 bc 48 69 25 bf 31 e9 b3 3e
       0.14054915 -0.02054111 -0.6461377 0.35138848
000150 a2 61 85 3c 89 f5 52 be 73 00 19 bf 51 cd 5d bf
       0.016281907 -0.20601477 -0.5976631 -0.8664141
000160 ee d4 b3 3e 5a a0 4b bc eb ab b0 bd 66 12 b0 be
       0.3512339 -0.0124283675 -0.08626541 -0.34389037
000170 f0 9d 3f 3e c5 33 13 3e d5 dd 4f 3e 5d c5 16 bd
       0.18712592 0.14375217 0.20299466 -0.036809314
000180 cc 44 a8 be 16 2c 50 3e 0c 2c 84 3c d6 f9 be bd
       -0.32864988 0.20329317 0.016134284 -0.09324996
000190 db a5 7b be 60 2c 03 3f d9 ad e9 be a2 a7 2d 3f
       -0.24574988 0.51239586 -0.45640448 0.6783391
0001a0 ac cd 74 bf 4e 1e 3a be 32 46 51 3e 3b 87 ad 3d
       -0.9562633 -0.18175623 0.20436934 0.08473059
0001b0 6f 2f 10 bf e8 4f 68 be 2b cf f2 3d 24 eb 4b 3e
       -0.5632238 -0.22686732 0.118559204 0.19913918
0001c0 ba e2 87 bd 7f 71 9a be 3f 6d 96 3e a4 e9 87 3e
       -0.066350415 -0.30164716 0.29380223 0.2654544
0001d0 ae fc e0 3d d0 a7 ec 3e c3 f6 df 3d 98 e4 95 bd
       0.10985695 0.4622178 0.10935738 -0.073189914
0001e0 36 b7 84 3e 8c 97 32 3e 61 46 51 be 12 32 b4 3e
       0.2592103 0.17440623 -0.20437004 0.3519445
0001f0 24 ae ab be fe 3b 18 3e 8b 3b f5 be 00 99 9a be
       -0.33531296 0.14866635 -0.4789699 -0.30194855
000200 50 55 95 be 0c 72 b9 3e f1 77 dc bc 17 e2 61 3d
       -0.2916665 0.36219823 -0.026912661 0.055147257
000210 eb d1 5e bd dd df a9 3e 00 66 5e 3e 59 40 ed bd
       -0.054399412 0.33178607 0.21718597 -0.11584539
000220 78 49 ee 3d fb 7e 97 be a8 2e 06 be 6f 41 20 3f
       0.11635107 -0.29589066 -0.13103735 0.62599844
000230 c5 1c 71 3e d0 24 87 be ac 18 0c be 66 b1 09 be
       0.23546131 -0.26395273 -0.13681287 -0.13446578
000240 c8 1d 1f be e9 62 dc 3d 10 c8 a5 3e 0c 0d af be
       -0.15538704 0.10761053 0.32379198 -0.3418964
000250 1a 30 b1 bd 5b bd ae 3e 76 09 81 be 52 f3 c4 bd
       -0.08651753 0.34128842 -0.2520253 -0.09616722
000260 2a 02 43 3d 73 92 00 bb f8 72 54 bf be 43 1f 3e
       0.047609486 -0.001961854 -0.8298793 0.15553185
000270 d5 76 ce be 32 a5 d6 be ee 3b 2f be 3f 5a a0 3d
       -0.40325037 -0.4192291 -0.17112705 0.07829713
000280 4a 6c bf bc 87 34 4f be e7 19 31 3e a6 b6 be be
       -0.023367066 -0.20234881 0.17295037 -0.37248725
000290 f2 5d cc 3d 3f 3a ad 3e c4 cd 4a bd 63 5e 89 3e
       0.09978856 0.338335 -0.04951264 0.26829824
0002a0 d0 7a 55 3c 86 e5 20 be 66 67 28 be 76 bc 0c 3e
       0.013029769 -0.15712556 -0.16445693 0.13743767
0002b0 5a a9 27 3e c9 e7 9d 3e aa 12 27 3c 9d e7 bc 3e
       0.16373196 0.308409 0.010197321 0.36895457
0002c0 92 7b c7 3d 8f b0 90 3d 7c e8 04 be 19 40 88 3e
       0.09740366 0.07064926 -0.12979311 0.26611403
0002d0 ab 70 8a bb 05 87 35 be fe c5 b0 bc ed 6c 4c bd
       -0.004224857 -0.17727287 -0.021578785 -0.049908567
0002e0 0e de 9b 3e 72 90 2a be ff 2f 89 3e f2 b1 3f 3e
       0.30442852 -0.16656664 0.2679443 0.18720224
0002f0 a6 4a c6 bd 82 0e 55 bf 4a b4 54 3e d9 85 ba 3e
       -0.09682207 -0.8322526 0.207719 0.36430243
000300 02 c9 12 bf ad 37 49 3e d2 78 d5 bd 9b b4 13 be
       -0.57337964 0.19650145 -0.10423435 -0.14424364
000310 32 23 4c bd 72 81 37 3e 9a 6e f5 3d 60 59 a1 3d
       -0.049838252 0.17920473 0.11983986 0.07878375
000320 10 5f 06 3d ba 79 80 3e 84 74 95 3e df 8e af 3e
       0.032805502 0.2509287 0.29190457 0.3428869
000330 6d b0 7c 3d ae 31 a4 be 93 4e 85 3e 78 66 74 be
       0.06169169 -0.32069153 0.2603651 -0.23867214
000340 02 1d 91 3e df 9c 89 3e 57 cc 99 3d 6a c3 c5 3e
       0.28342444 0.26877496 0.07509678 0.38625652
000350 fa c5 8e be 9f c5 ec 3e 77 05 41 be e7 19 92 be
       -0.2788542 0.46244523 -0.18849741 -0.28535387
000360 3f 20 8f bd 52 91 b0 be eb a1 78 be dd 63 d1 bd
       -0.06988572 -0.3448587 -0.24280517 -0.102241255
000370 10 3b e2 3d e7 d5 b3 bd f6 64 06 bf e1 24 6a be
       0.110464215 -0.08781033 -0.52497804 -0.2286563
000380 81 68 92 3e 2b c9 a1 be 7e 05 81 bc 74 a5 b7 3e
       0.28595355 -0.3159879 -0.01574969 0.35868418
000390 ff ec da 3e 52 1b 0a 3f b2 af 68 bf dd 08 9a 3d
       0.4275894 0.5394794 -0.9089309 0.07521222
0003a0 a4 e5 d9 be a0 52 97 bb 2f d0 ee be 9d 05 ad 3e
       -0.42558014 -0.004618004 -0.46643206 0.33793345
0003b0 11 3e ec be 0b 53 31 be 58 1b 34 be 63 16 87 bd
       -0.46141103 -0.17316835 -0.17588556 -0.06596067
0003c0 32 2a 1d 3e 84 42 14 3f 54 df 28 3e 94 00 c7 3e
       0.15348127 0.57913995 0.16491443 0.3886763
0003d0 56 34 0a bf 6d b9 04 3f 23 93 03 3f 19 06 37 bf
       -0.5398611 0.5184544 0.5139639 -0.7149368
0003e0 dd e8 28 3d 12 2f 0d 3d b7 1b 8c 3e 51 0d 8c be
       0.0412377 0.034468718 0.27364895 -0.2735391
0003f0 a2 73 cc be 5e 4a 99 bd a9 97 84 3e 65 f0 3f 3d
       -0.3993197 -0.074848875 0.25896958 0.046860117

encoder.gcs.1.bias f4 [64]
000000 a2 c3 66 3d 71 a7 9c be 42 ed 11 be 0e a9 fa bd
       0.056338914 -0.30596498 -0.14250663 -0.12239276
000010 e0 f7 2c be 2b 90 e3 bd cb 3c a7 be 79 85 69 be
       -0.16891432 -0.11111482 -0.3266357 -0.22804822
000020 91 8f 72 bc 32 f6 85 be c6 09 2d be 9f b8 d0 bd
       -0.014804737 -0.26164395 -0.1689826 -0.10191464
000030 3e e4 bf be cf 4c 5f be 8b c5 9d bd 1f 37 90 be
       -0.37478822 -0.21806644 -0.07703694 -0.28167054
000040 b8 9b 61 be 37 90 76 3d cb ba 48 be 2a 29 21 3e
       -0.22032058 0.060196128 -0.19602506 0.15738359
000050 ee 72 af be aa db b7 bd 76 6a da bd ec 50 31 bd
       -0.34267372 -0.089774445 -0.10664837 -0.043290064
000060 07 e4 fa bd fd 23 6a 3d 70 35 89 be 3a e0 0e 3d
       -0.12250524 0.057163227 -0.26798582 0.034881808
000070 33 25 34 bd 66 90 e0 bd 9d 1e f9 bb 84 47 07 3e
       -0.04398079 -0.10965042 -0.0076025263 0.13210875
000080 ae 8f 27 3e cc 41 a9 3d 34 15 cb be 3c 0d 85 3c
       0.16363403 0.08264503 -0.39664614 0.016241662
000090 ec 69 a3 be 9f 8c c6 be fb 39 18 3d 1e 64 c8 bc
       -0.3191675 -0.3877916 0.03716467 -0.024461802
0000a0 86 02 85 be 46 92 8a be 96 a9 ab be 90 fe 8a 3d
       -0.25978488 -0.27064723 -0.3352782 0.06786835
0000b0 55 36 bd be 1a 0f ad bd 39 a8 3a bd 78 db 27 3e
       -0.36955515 -0.08450146 -0.045570586 0.16392314
0000c0 f1 a8 ae be fe 65 8c 3d 67 16 1b be 3d d2 38 be
       -0.34113267 0.06855391 -0.15145265 -0.1804895
0000d0 45 89 3a 3d 29 ec 5a be 2b 8f 0a 3e 24 c3 96 bd
       0.045541067 -0.2137915 0.13531177 -0.07361439
0000e0 ee 1a c7 bd 52 38 9c bd ca ce 84 bd 86 94 7a be
       -0.09721933 -0.0762793 -0.064847544 -0.2447072
0000f0 df 7b fa bd e2 5b 3c bd 92 97 d7 be d3 bb 16 be
       -0.12230658 -0.045986064 -0.42107826 -0.14720087

encoder.gcs.2.weight f4 [128, 64]
000000 b7 99 85 be 35 22 05 3e 21 a7 25 be 0f 1e 26 be
       -0.26093838 0.1300133 -0.16177036 -0.16222404
000010 f9 2e f0 be 00 3f 39 3e 8d b4 b7 3e 8b 05 aa 3c
       -0.46910837 0.18090439 0.35879937 0.020754596
000020 cc 5b 9e bd aa 17 32 3e 73 6d 4e bc 54 cc 33 be
       -0.077323526 0.1739184 -0.012599337 -0.17558414
000030 58 9c 65 3e e8 12 f4 3d 64 a6 e0 bd 8b f2 a9 bd
       0.22422922 0.119176686 -0.109692365 -0.082982145
000040 ee e0 c8 3e b2 e3 de bc 66 89 1f 3d 19 6a 1d 3e
       0.39234108 -0.027208183 0.038949393 0.15372504
000050 27 e5 00 3e b6 9a a6 3d 8d 38 69 3e 94 9d 35 3e
       0.12587415 0.081349775 0.22775479 0.17735893
000060 c3 03 17 3d 76 91 ac bc 10 5b 90 bd 9f 93 9c 3e
       0.03686882 -0.021065455 -0.07048619 0.30581376
000070 80 c2 93 be 80 6e 88 3d fa 77 e1 3d a3 ce 89 bd
       -0.2885933 0.06661701 0.11009212 -0.06728866
000080 7e e7 b1 3e 04 d9 25 bd 7f 14 1d 3e bd 7c 87 be
       0.34746927 -0.040490165 0.1533985 -0.26462355
000090 46 d6 2f be 82 5b 6c 3c 52 31 c2 be 9b d2 3c bc
       -0.17171583 0.014426114 -0.37928253 -0.011524822
0000a0 69 2d c3 3d 18 08 aa bc d9 6c 23 3e 51 48 4a bd
       0.09530146 -0.020755813 0.15959491 -0.049385373
0000b0 32 1a f4 bd 70 bb 6d bd d2 1d a4 3e 5d 46 fb bd
       -0.11919059 -0.058040082 0.32054 -0.1226928
0000c0 df f7 0b 3e 34 2a 93 bd 75 eb 62 be 9c 7b db bd
       0.13668774 -0.07185784 -0.22160132 -0.10716936
0000d0 2a da c3 bc 0b f5 ee 3d b6 b7 81 3e 9b cd 63 c0
       -0.02390774 0.11667832 0.25335473 -3.5594242
0000e0 f3 61 bb be b1 49 f4 bd 88 8c a5 3c 79 85 ca 3d
       -0.36598167 -0.11928118 0.020208612 0.09888739
0000f0 84 fb 0e 3e 1e 39 01 3d 7d 60 52 3d c0 8e 30 3e
       0.13963133 0.03154861 0.05136155 0.17241955
000100 d9 23 9c 3e 8b a0 19 bc be 93 3f be 6b 12 8d bd
       0.304961 -0.009376655 -0.18708703 -0.068882786
000110 69 72 e1 be 3a 5a b9 3c e0 9a 9a 3d b8 9d 81 3e
       -0.440326 0.022626031 0.07549071 0.25315642
000120 85 ae a9 bc ae 17 6f 3d 48 90 8d 3d 4a 98 0f 3d
       -0.0207131 0.058372192 0.06912285 0.035057344
000130 87 c7 1c 3e 25 f6 d1 bd ab 87 98 bd b8 2c 9c 3e
       0.15310489 -0.102520265 -0.074477516 0.30502868
000140 2a 66 50 3d f3 b2 51 be d1 df 00 be 15 25 57 3e
       0.05087868 -0.2047842 -0.12585379 0.2101024
000150 ca 3a a7 bd 1b 68 28 3d 07 aa 14 be 38 bf 14 3e
       -0.0816551 0.041114908 -0.14517985 0.14526069
000160 e4 bf 06 3e 69 91 6f be 6c 64 85 be 2a aa 6d 3c
       0.13159138 -0.23395313 -0.26053178 0.014505902
000170 09 7e b3 bd f1 39 17 3e 96 c0 bc 3d b8 66 16 be
       -0.08764274 0.14768197 0.0921642 -0.14687622
000180 4a 95 ba 3c 73 81 96 3e 4e 5d f8 bd 7a d3 b7 be
       0.022776265 0.29395637 -0.121271715 -0.3590353
000190 4c 5f 64 3e 9a 51 22 be 41 f3 60 3d fd a1 1e 3e
       0.22301978 -0.15851441 0.054919485 0.15491481
0001a0 96 ce 02 3e d4 ce 15 be ee ca f7 bd 37 35 31 be
       0.12774119 -0.1462968 -0.12099253 -0.17305456
0001b0 5e ee 44 3d 14 e7 26 be d4 51 49 3e d3 bd bc 3d
       0.048078887 -0.16299087 0.19660121 0.092158936
0001c0 4e e2 7d bd 85 9c 44 bc b5 4a 5f be 13 2b cf be
       -0.0619834 -0.012000208 -0.21805842 -0.4046255
0001d0 64 1b 05 3e 8a 71 7c be 51 06 97 3e 14 1e a0 3e
       0.1299873 -0.24652687 0.29497007 0.31272948
0001e0 9d a5 7e be f3 cc 4e 3e a5 80 42 be a4 5d 02 bf
       -0.24867864 0.2019537 -0.18994386 -0.50924134
0001f0 7e 9e 25 bd 7e 26 a3 3c 31 23 9c bc ad 9a fa bb
       -0.040434353 0.019915815 -0.01905975 -0.0076478333
000200 74 f6 1a bf 80 ed 5f be 8e 04 df 3e 97 dc 78 be
       -0.6053231 -0.21867943 0.43558162 -0.24302898
000210 2e 57 b9 3e af ba 66 3e 3d cd 36 3d c6 fe a0 bd
       0.36199325 0.22532152 0.044629324 -0.07861094
000220 1a b3 e1 be 60 94 e7 3d 6f 7e 5d 3c 00 f5 ec 3e
       -0.44081956 0.11307597 0.013518914 0.4628067
000230 7a 77 55 3e 31 07 ae 3d 68 56 0f 3f f9 5a c6 3e
       0.20846358 0.084974654 0.5599122 0.38741282
000240 22 5b 13 3e 7c a9 bf be 7d 9d c0 3e 76 e2 10 bf
       0.14390233 -0.37433994 0.37620154 -0.5659555
000250 09 3d 37 3e e7 1e 52 3d d3 48 10 3d 5a 16 1c bd
       0.17894377 0.051299002 0.0352257 -0.038107254
000260 7c 96 97 3e 0d f8 1f bc 07 b9 be bd 76 f0 87 be
       0.29606998 -0.00976373 -0.09312635 -0.26550645
000270 a7 d0 a1 3e f9 30 dc 3c 7b 96 83 3e 77 0b f3 be
       0.31604502 0.02687882 0.25700745 -0.47469684
000280 7e 5d 50 3d 6b f4 b2 be f4 28 0f 3e 93 d2 d2 bf
       0.05087041 -0.349521 0.13980466 -1.6470512
000290 c5 13 25 3c c2 3f fc 3e 09 d4 de be 55 7c 41 bd
       0.010075514 0.49267393 -0.43521145 -0.047237713
0002a0 fc ea 8f 3e ef 41 1d 3c cd a1 5f be 9d 4c 61 3d
       0.28108966 0.009598239 -0.21839066 0.055004705
0002b0 21 36 a4 3e a0 81 eb be 58 25 e8 3d 52 65 02 bf
       0.32072547 -0.45997334 0.11335248 -0.5093585
0002c0 50 4f 42 3d d4 60 a0 3d 67 b3 4a 3e 69 c6 9b 3d
       0.04743892 0.078309685 0.19794999 0.07606203
0002d0 3e 99 e2 3d a8 68 e3 3e 69 5c 3f 3e 3a 13 37 bf
       0.11064385 0.44415784 0.18687595 -0.7151371
0002e0 71 09 68 3e ba 09 ae bd 1d 4e 93 3e 20 26 8f be
       0.22659852 -0.08497949 0.28770533 -0.27958775
0002f0 53 3b 6b be 22 49 8f 3e a9 cf 33 3f 7c 5a c7 3e
       -0.22971849 0.27985483 0.7023874 0.38936222
000300 6e c1 31 3e fa dd 8c 3e 64 4f a5 bd e1 10 d9 3d
       0.17358944 0.27513105 -0.08071783 0.105989225
000310 4e 3b 45 3d b3 2e b4 3b 2b 40 94 3e 02 82 95 be
       0.04815226 0.005498731 0.28955206 -0.2920075
000320 4b cf a0 3d ad a1 29 3d 74 73 0f 3e 75 a8 45 3e
       0.07852038 0.04141395 0.14008886 0.19302543
000330 4f 7e 7c 3d 99 86 4f 3e d8 27 c0 3d d0 54 58 bf
       0.061643895 0.20266189 0.093825996 -0.84504414
000340 ea 24 c6 bd 3c 3e f4 3d 35 7f a9 bd 59 be 14 bd
       -0.096750095 0.11925933 -0.08276216 -0.036314342
000350 b5 ec 0c be 1c 42 a6 3d 03 1a b9 3d e0 99 f6 bd
       -0.13762172 0.08118078 0.090381645 -0.12041068
000360 74 c4 e0 bd 9b 68 4c 3d ca 29 77 3d 63 55 05 3e
       -0.109749705 0.049904447 0.060342588 0.13020854
000370 31 54 94 bd 93 d8 02 3c 6a 44 28 3e 1b 4e 40 be
       -0.07242621 0.007986206 0.16432348 -0.18779795
000380 16 b8 18 be 9a c7 ca 3d 18 02 b6 3d 98 d0 01 be
       -0.14913973 0.09901352 0.08887118 -0.12677228
000390 a1 90 40 3e 7a d9 ce 3d 72 97 a3 3d e6 c1 da bd
       0.18805172 0.10100074 0.0798787 -0.106815144
0003a0 2a 97 57 3e fa 2e ca be 39 66 d1 3e 9c 0f 3a be
       0.21053758 -0.39488965 0.40898302 -0.18170017
0003b0 49 d0 0e 3f 5b 2a 92 be 80 0b d4 bb 92 27 47 3e
       0.5578657 -0.2854794 -0.0064710975 0.19448689
0003c0 fc 39 56 3e d6 59 c2 3e a4 e2 bb 3d b1 20 53 be
       0.20920557 0.37959164 0.09174088 -0.2061794
0003d0 05 30 af be c9 a8 8e 3e 5e 79 73 be de 74 c7 3e
       -0.34216323 0.27863148 -0.23776767 0.3895635
0003e0 28 fb de be 04 f9 97 bb 32 12 53 ba 29 3b 76 be
       -0.43550992 -0.0046378393 -0.00080517225 -0.24046005
0003f0 dd f1 10 3f 63 7b 16 ba d8 d3 65 be d7 f3 20 3e
       0.56619054 -0.0005740432 -0.22444093 0.15718018

encoder.gcs.2.bias f4 [128]
000000 07 f2 30 be 8d 49 a9 be db ed db bb cc 7a 0c be
       -0.17279826 -0.33063927 -0.006711704 -0.13718718
000010 31 32 d2 3d 77 7a a1 bd 63 33 d0 3c 49 13 ea bc
       0.102634795 -0.078846864 0.025415128 -0.028573649
000020 8f 47 04 be 9f e6 95 3c 99 30 d6 bd 14 39 18 be
       -0.12917922 0.018298445 -0.10458488 -0.14865524
000030 53 47 b3 bd 16 5b 15 be 0e 74 42 be 3c db 3f be
       -0.087538384 -0.14585528 -0.18989584 -0.18735975
000040 fa d4 48 bb 59 28 b3 3d 05 e6 2c bc cc 7a 55 be
       -0.0030644522 0.0874793 -0.010552888 -0.20847625
000050 f4 32 5d 3d cb c9 40 be e3 25 8d bd 64 72 18 bc
       0.05400367 -0.18826978 -0.06891992 -0.009304617
000060 a7 6b 82 be 59 76 28 3c f4 6d 69 39 00 6f 04 be
       -0.25472757 0.0102821225 0.00022261572 -0.12932968
000070 49 78 09 be c5 b4 65 3c 10 b3 17 bd ea d0 68 be
       -0.13424791 0.01402015 -0.037036 -0.22735944
000080 56 e1 4b be 58 28 9a be 16 95 d1 3d b6 9f f8 bd
       -0.19910178 -0.30108905 0.10233514 -0.121398374
000090 d4 83 0b 3e c8 a3 d1 be ae 87 9b bd d6 6c 73 be
       0.13624507 -0.40945268 -0.07594238 -0.23771986
0000a0 57 a4 c0 bd 84 c3 1f 3d 8b 7c c6 3d c3 0d b0 bc
       -0.09406345 0.039004818 0.096917234 -0.021490937
0000b0 da 34 3d be d6 24 01 bf 01 51 80 be 6f a0 bb be
       -0.18477193 -0.5044683 -0.250618 -0.3664584
0000c0 80 84 a0 bd cf dd 18 be 8a 89 1e 38 ba cf 57 be
       -0.07837772 -0.14928363 3.779823e-05 -0.21075335
0000d0 0c 68 21 be e4 99 61 3b b6 6d 14 be 9a ea ef bd
       -0.15762347 0.0034424001 -0.14494976 -0.117146686
0000e0 ff 27 e0 bb 95 20 9f 3d 89 38 b2 be eb 3b 52 bd
       -0.0068407054 0.077698864 -0.34808758 -0.051326673
0000f0 cf ad 55 be 7f 43 d0 bd 42 8a 9b 3d 42 39 99 be
       -0.20867084 -0.10169124 0.0759473 -0.29926497
000100 9a e6 3c bc 3f 73 99 be cd 48 e8 bd 8a 9c 1a be
       -0.011529589 -0.29970738 -0.11342011 -0.15098777
000110 9d 4d 9e bd 64 7f f6 bc 2b 85 04 3c 83 dd e5 bd
       -0.07729647 -0.030090041 0.00808839 -0.11223891
000120 d1 04 e5 bd 75 b0 65 bb c2 ef c5 3c 1e 4d da bd
       -0.11182559 -0.0035047804 0.024162177 -0.1065924
000130 f3 8b 03 bc a3 a6 17 3d b3 84 4a 3d 1e 3e 07 be
       -0.008028972 0.03702415 0.049442958 -0.1320729
000140 08 f6 32 bd 2f 67 30 be 74 33 7d be 39 c4 93 bd
       -0.043691665 -0.17226861 -0.24726659 -0.07215161
000150 00 b5 6e bd c6 66 bc bd fe 11 b9 bd 46 3d 88 be
       -0.058278084 -0.0919929 -0.09036635 -0.26609248
000160 bd fd 15 ba c2 90 0f be 74 44 95 3d d3 74 09 3e
       -0.0005721709 -0.14020064 0.07288447 0.13423471
000170 73 ee 66 bd c0 ea de bd c6 02 0d be 1f af 31 be
       -0.056379747 -0.10884619 -0.13770589 -0.1735196
000180 bd f3 85 be 06 99 35 be 22 9a 0c bd 2a a5 51 be
       -0.2616252 -0.17734155 -0.03432668 -0.20473161
000190 fa 46 0c be 94 94 34 ba ee c0 dd bd 73 c7 46 3e
       -0.1369895 -0.0006888595 -0.10827814 0.19412021
0001a0 51 11 18 be bd f1 8e bd 46 ae 85 bd d7 e1 94 bd
       -0.14850356 -0.06979702 -0.06527381 -0.07269638
0001b0 cb f6 76 be ef 11 04 be a2 fd f3 bd b8 b1 1e 3b
       -0.24117582 -0.12897466 -0.11913611 0.0024214815
0001c0 5d d3 3d bd e0 16 98 bd b5 dd ff bd 22 24 e7 bd
       -0.04634415 -0.07426238 -0.12493459 -0.11286189
0001d0 f8 58 9b be 01 18 90 be b7 a6 1e bd 1a d2 cc bd
       -0.30341315 -0.28143314 -0.03873321 -0.10001011
0001e0 44 3c 05 bb 54 0d 17 3d 00 6d 93 be c6 b3 63 3c
       -0.002033011 0.036877945 -0.28794098 0.013897842
0001f0 c6 1a 42 bd 14 08 2a be 79 eb d5 bd 0f 70 d0 3d
       -0.047388814 -0.16604644 -0.104453035 0.101776235

encoder.gcs.3.weight f4 [64, 128]
000000 ed 90 dd 3e bb b6 81 3e c9 7f 29 be 44 c0 77 3e
       0.43274632 0.25334725 -0.16552652 0.24194437
000010 38 b5 66 3e c2 24 42 be b8 80 0d be 5c 83 9b 3d
       0.22530067 -0.18959334 -0.13818634 0.07593414
000020 2a 04 6d be e2 15 97 3d 01 8b b7 bb 46 60 93 be
       -0.2314612 0.07377221 -0.0056012874 -0.28784388
000030 cb 3a b3 be 84 82 a4 be 55 37 11 bd 91 44 04 be
       -0.35005793 -0.32130826 -0.03545316 -0.12916781
000040 59 17 b8 3c 8f b1 9b 3e 9a 2f 63 3c 14 99 30 be
       0.02247207 0.30408904 0.01386633 -0.17245895
000050 0c 6d b7 3e 5d f1 1c be 2e 87 cc 3d 82 4e fe 3e
       0.35825384 -0.15326448 0.09986721 0.49669272
000060 06 47 d5 3d 4a f1 05 3c 41 92 dc bc 60 c6 72 3d
       0.10413937 0.008175204 -0.026925208 0.059271216
000070 02 e9 b0 be a1 fe 2b be a5 8f 42 bd 7c 77 d4 3d
       -0.3455277 -0.16796352 -0.04750027 0.10374352
000080 c8 8f 53 3e d6 69 e5 be 8a 14 4c 3e d5 c0 10 be
       0.20660317 -0.4480731 0.1992971 -0.1413606
000090 55 1f 3e 3e 2c 85 1c bd d8 66 a0 bd bc 9e 1c bd
       0.1856664 -0.03821294 -0.07832116 -0.03823732
0000a0 a6 42 47 3d b9 82 6c bc a4 cf 5f 3e a7 ad d9 3d
       0.048647545 -0.014435464 0.21856552 0.10628825
0000b0 3b a7 97 3d 05 10 e0 be 1e 43 7d be 9c 40 38 bd
       0.074049436 -0.43762222 -0.24732634 -0.04498349
0000c0 b4 47 1e 39 59 0d a4 3d 54 a0 64 bd 88 9b e0 bd
       0.00015094766 0.08010358 -0.055816963 -0.10967165
0000d0 40 93 54 3e 77 e7 99 3e 03 3f 4d bd 6e a2 b6 bd
       0.20759296 0.30059406 -0.05010892 -0.089177
0000e0 f9 7e 96 bb ae c8 46 3e c1 9c 1b 3e f4 d1 03 3e
       -0.004592773 0.1941249 0.15196516 0.1287306
0000f0 61 bb 93 be 49 bd 57 3e 36 cb 87 3e 91 d9 f9 be
       -0.28853896 0.210683 0.26522225 -0.48798802
000100 81 b0 17 3e 49 ac a9 be 33 c1 be 3d 7f 7d 36 be
       0.14813425 -0.33139256 0.093141936 -0.1782131
000110 63 a1 c3 3e cd e5 1d be 19 f2 96 3e 98 d7 e3 3e
       0.38209066 -0.15419693 0.2948158 0.44500422
000120 88 76 0f 3e 6f fa 3d 3e 62 4b 85 3e 7e 99 12 3e
       0.1401006 0.18552564 0.26034075 0.14316365
000130 6f 79 28 3e c5 1c 20 3e 30 1a 6a 3e 86 60 93 3e
       0.16452573 0.15635975 0.22861552 0.2878458
000140 6e e2 96 3e 87 27 54 3e 22 7a bd be 54 5d bb 3b
       0.29469627 0.20718203 -0.37007242 0.0057179127
000150 a6 5f ca be a1 85 01 3d 4f db 72 be 48 86 b3 bd
       -0.395261 0.03162158 -0.23716472 -0.087658465
000160 6a 0d 6e 3d 92 e3 45 bd 57 f7 94 3d 69 65 11 3e
       0.05811826 -0.04831273 0.07273739 0.14198841
000170 49 83 12 3f 59 12 97 bc 61 77 32 be c9 00 b4 3d
       0.57231575 -0.018441366 -0.17428352 0.08789212
000180 0e df 8c bd 06 b3 ca bc b2 db 88 3e 86 ac a0 be
       -0.06878482 -0.024743568 0.26730114 -0.31381625
000190 97 a4 17 3d f2 17 b2 3c 80 4f fb 3d 52 b0 05 3e
       0.0370222 0.021739934 0.12271023 0.13055542
0001a0 e1 7d 73 3e 0b e5 bd 3d 3a 59 f2 3d 19 9a c1 be
       0.23778488 0.09272202 0.11833425 -0.3781288
0001b0 9f 76 ce 3d 1d b9 94 3d 24 7d 32 be cf 2f 76 3d
       0.10081219 0.0726187 -0.1743055 0.060104188
0001c0 f2 fa ad 3e b9 20 3b be 4e 33 3c 3e 7e 74 eb bc
       0.3398052 -0.18274201 0.18378946 -0.028742071
0001d0 ed a2 57 be 33 3d 89 be d1 16 81 be 2e 64 63 3e
       -0.21058245 -0.26804504 -0.2521272 0.22206184
0001e0 fe 2a 31 3d a9 ee 67 bc 92 2e 11 be 69 29 a1 bd
       0.04325389 -0.014156022 -0.14177921 -0.078692265
0001f0 48 40 5f 3e 78 90 83 3c 18 54 d2 bd 8e a0 36 bd
       0.21801865 0.016060099 -0.10269946 -0.04458671
000200 7c ec b8 bb 66 be 2d 3e 85 83 94 be e4 56 e2 3e
       -0.0056434255 0.16967162 -0.2900659 0.44206917
000210 59 31 5e 3e 42 fa 65 bc 2c 80 a8 bc 35 4e 94 be
       0.21698512 -0.014036717 -0.02056893 -0.28965917
000220 a7 bb 75 be 91 2a 48 bc f1 c1 c8 3e 8b 0b af be
       -0.23997365 -0.01221718 0.39210466 -0.34188494
000230 0f 62 66 3e 73 3b 1d be 8b 4c 06 3e aa da 37 be
       0.22498344 -0.1535471 0.13115136 -0.17954507
000240 6c 33 4b bd bc 49 a4 3d 20 07 48 be 4f c3 e5 3b
       -0.049609587 0.08021876 -0.19533968 0.007011808
000250 82 32 b9 b9 ad 10 bb 3d f2 52 f3 bd da f3 e0 3d
       -0.0003532358 0.0913404 -0.11881055 0.10984011
000260 75 37 0f 3e cd ed a1 3d c2 be 49 bb 95 53 c3 bd
       0.13985999 0.07906685 -0.0030783867 -0.095374264
000270 e8 66 81 be 47 10 b8 be 92 8a 55 3e 09 a7 12 bd
       -0.25273824 -0.3594992 0.20853642 -0.03580383
000280 83 b4 61 bd 08 29 b3 be d5 4a 43 3e bf ee 29 be
       -0.05510379 -0.34992242 0.19071515 -0.1659498
000290 d2 e1 f5 3e 39 ea 15 3f 25 72 45 3e 7c e5 0f 3e
       0.4802385 0.5856052 0.19281824 0.14052385
0002a0 c9 cd 85 bd 8b ca a6 3d ae b4 e1 bc 68 c2 7f bd
       -0.06533391 0.08144101 -0.027551975 -0.06244126
0002b0 d3 da 30 3e f6 7d 1c be cb dd 44 3e 7b ce a8 3e
       0.17270975 -0.15282425 0.19225232 0.32970032
0002c0 0b e2 36 be d3 5f dc 3e b4 33 62 bd cc 54 36 3e
       -0.17859666 0.43041858 -0.05522509 0.17805785
0002d0 23 7c d7 3d 05 40 e4 bb ce 81 26 3c 0e cb 01 be
       0.10521724 -0.0069656395 0.010162784 -0.12675115
0002e0 4a 72 df 3c a5 57 36 3d 0b 87 d0 3e 37 73 28 bd
       0.027276177 0.044517178 0.4072803 -0.041125502
0002f0 2a 32 a7 3e 06 ef aa 3c 9f 97 12 bd b3 36 13 3f
       0.3265546 0.020865928 -0.03578913 0.5750534
000300 a7 4e b5 bd 3b 35 96 bd 59 2c 60 bc 43 ca 81 3e
       -0.08852892 -0.07334372 -0.013682448 0.25349626
000310 ff 78 87 be 67 ef 6d be c1 03 09 3e f7 e9 6b 3e
       -0.264595 -0.23235856 0.13380338 0.2303847
000320 88 d5 f9 3d b5 9e 18 3e 78 e9 d2 3e db da 23 bd
       0.12198931 0.14904292 0.41193748 -0.04000364
000330 0f ef d1 bd 5d 50 33 be 46 33 29 c0 83 9b f1 be
       -0.10250675 -0.17511125 -2.6437545 -0.4718896
000340 48 02 03 be 1c 17 4f 3e 31 b0 b4 3e b2 a0 01 3f
       -0.12793839 0.2022366 0.35290673 0.50635827
000350 26 b5 c6 3e af c0 23 3e 06 3b 94 3d 5c 12 ba be
       0.3881008 0.15991472 0.0723782 -0.36342132
000360 9a 6d 91 3c 57 66 51 3e ca 92 d7 3d dc 48 39 3d
       0.017752457 0.20449196 0.10526045 0.0452355
000370 f6 2d 29 bf 76 c0 a7 be 18 58 2c 3e ac 25 d9 3d
       -0.66085756 -0.32764024 0.1683048 0.106028885
000380 e4 9c 0d bf e3 46 8f 3e 1f 2f 8f c0 55 57 e9 be
       -0.5531752 0.2798377 -4.474502 -0.45574442
000390 b2 f9 20 bd a0 31 00 bd c8 dd cd 3d f3 b3 aa 3c
       -0.039300628 -0.031297326 0.10052067 0.02083776
0003a0 f8 6c 5c 3e e3 2d 87 be fd 1b 83 3d a5 d2 8d 3e
       0.21525943 -0.26402196 0.06401823 0.27699772
0003b0 97 53 d9 bb b7 3d 9d 3d 07 ba 69 be 0b 1c bd be
       -0.006632279 0.07677787 -0.2282487 -0.36935458
0003c0 62 89 00 bd b0 0a a6 bc 1f 78 99 be 29 73 08 3e
       -0.03138102 -0.020268768 -0.29974458 0.1332518
0003d0 5a 6b 08 3f c3 5d 45 be a3 93 72 3d 17 df da 3d
       0.53288805 -0.19274049 0.05922283 0.10687082
0003e0 d3 cd 93 bc 90 87 6e be 53 8f 36 3e 77 28 02 3e
       -0.01804248 -0.232939 0.17828111 0.12710749
0003f0 b0 e3 49 3d fe 1a f8 3d f2 3c 28 3f 83 a5 a7 3d
       0.049289405 0.12114523 0.65717995 0.08185866

encoder.gcs.3.bias f4 [64]
000000 1f 1e 4b be 68 8b fb 3d 31 45 8c 3e 28 b8 1c 3d
       -0.19835709 0.12282449 0.2739654 0.038261563
000010 ec 95 8c 3d f2 e8 51 bd f7 58 60 be 7b 2b a3 be
       0.06864533 -0.051247545 -0.21908937 -0.3186911
000020 a7 13 70 3e 2c 93 82 be ba b9 a2 bd 20 57 dd 3d
       0.23444997 -0.25502908 -0.07945581 0.108076334
000030 86 00 12 3e 5b 4f 8c 3d 0c 20 c7 bc db 0d 16 3e
       0.14258012 0.06851073 -0.024307273 0.14653723
000040 89 0d 2e bd f5 90 be 3e c5 a8 4b be 0c dd 0c 3e
       -0.042493377 0.37219968 -0.19888599 0.13756198
000050 0e aa 64 be b7 2a cd bd 26 52 f5 bd 35 3a 88 bd
       -0.22330496 -0.10017913 -0.11978559 -0.06651727
000060 aa 90 52 be 48 6b cc bd 99 da 90 bd 78 fe cd be
       -0.20562997 -0.099814 -0.07072944 -0.40233207
000070 5c d1 3d 3d 38 02 d0 3a 70 d0 46 be f6 ae 35 3e
       0.04634224 0.0015869802 -0.1941545 0.17742524
000080 ca e3 36 bd eb 04 98 bb 95 db 9c be 7d 36 53 3d
       -0.04465083 -0.004639258 -0.30636278 0.051565636
000090 bc e9 96 3e 7b 44 8a be 1b b1 df bd 80 ee 4e be
       0.294752 -0.2700537 -0.10922452 -0.20208168
0000a0 47 36 25 3d 6d e8 c1 3d 9c 7d 84 3d 3a fa de be
       0.040334966 0.0946816 0.064692706 -0.43550283
0000b0 5b b5 a4 be 55 b4 f8 bc d4 da 64 3e ca 82 aa 3e
       -0.32169613 -0.030359427 0.22349101 0.3330291
0000c0 2b 03 19 be ad 22 49 be 1f f7 8b 3d 0e e6 a7 bd
       -0.14942615 -0.19642134 0.06834244 -0.08198176
0000d0 c9 c1 18 3d f3 0e 97 be 35 0a f9 3c ea 84 1f 3d
       0.037294183 -0.29503593 0.030400375 0.038945116
0000e0 dd 47 5a bb 49 9e c1 3d 46 e5 8c 3e 3e f6 7e be
       -0.0033306994 0.094540186 0.27518672 -0.24898621
0000f0 94 a0 ac be 58 5b 29 bd 21 b6 e3 bd b7 54 36 bd
       -0.3371626 -0.041346878 -0.11118723 -0.044514384

encoder.gcs.4.weight f4 [32, 64]
000000 fd 1b 70 3e a5 68 84 be 82 87 5e be 84 f5 56 be
       0.23448177 -0.25861087 -0.2173138 -0.20992094
000010 99 de a1 be 04 88 85 bd 9c 99 21 be c2 86 90 be
       -0.3161514 -0.065200835 -0.15781254 -0.28227812
000020 ee ed 8a 3c 9b 50 ce bd f7 c0 85 bd 06 9b 8c be
       0.016959157 -0.10073968 -0.06530946 -0.27462023
000030 f6 bc 7a be ae 63 3a 3e d3 16 5e 3e b6 5b 1f 3e
       -0.24486145 0.18202087 0.21688394 0.15562329
000040 dd c2 74 be 4c 3a 68 be c0 77 a9 3d 9c 15 b7 be
       -0.2390246 -0.22678488 0.082747936 -0.35758674
000050 bc e5 b4 3d 47 1b b0 be 2a fa 2b be d9 3f 32 bd
       0.08832881 -0.3439581 -0.16794649 -0.04351792
000060 94 d1 0f be 6e 4f 4c 3e b4 22 8d be 15 06 32 be
       -0.14044791 0.19952175 -0.2756554 -0.17385133
000070 f2 83 8f bb 49 de d3 3d b5 0b 86 be 58 65 af be
       -0.004379743 0.10345132 -0.26180807 -0.34257007
000080 09 e2 0e 3e 6f 6a 2b be 05 d7 4d bd 0c c7 55 bc
       0.13953413 -0.1673982 -0.050253887 -0.013047945
000090 b5 d8 f0 bd 31 71 bf bd a9 72 46 bd c1 98 0b 3c
       -0.117600836 -0.093477614 -0.048449192 0.008520306
0000a0 b1 ef 65 3d c7 ca 78 be 67 68 15 3d 2a 5f e7 bd
       0.05613679 -0.24296103 0.03647652 -0.11297448
0000b0 62 16 09 be 56 dc ab be 6b ef 5b 3e 45 12 be 3d
       -0.13387445 -0.3356654 0.2147805 0.092808284
0000c0 c2 2d ca bc a4 de b9 bd 6e a3 82 3d af 22 69 bd
       -0.024680022 -0.090756685 0.06378828 -0.056917842
0000d0 b7 b5 11 3e 1c 4f e6 3d 91 df 87 bd 29 0e 6e be
       0.14229475 0.11245558 -0.06634439 -0.23247589
0000e0 02 50 f3 bd 2b e7 9b be a8 cc e0 3c eb e1 27 3e
       -0.11880495 -0.30449805 0.027441338 0.16394775
0000f0 38 f8 25 3e 5c e6 98 be ea 39 67 bd 47 16 7d be
       0.16207969 -0.2986325 -0.056451716 -0.2471553
000100 d0 75 8e 3e dd 08 2c 3e 64 a4 9a bd 46 3a 38 3f
       0.2782426 0.16800256 -0.07550886 0.7196392
000110 fa eb 92 3c c5 4c 81 3e 7f 7a a6 3d 8c 17 92 bd
       0.017934788 0.25253883 0.08128833 -0.071333975
000120 23 1b b8 bd b6 a6 a5 be 51 3e 40 3e 77 11 51 bc
       -0.08989551 -0.32353753 0.18773772 -0.012760512
000130 f7 ae 8a 3d b9 54 37 3e 04 16 dc bb 4f 9f ed bc
       0.06771653 0.17903413 -0.0067164917 -0.029006628
000140 61 df 20 3e 3e 7f 90 bd 38 49 55 3e a0 bb cc bd
       0.15710212 -0.070555195 0.20828712 -0.09996724
000150 21 81 16 be 16 67 65 be fb 90 15 3e e1 67 f8 bd
       -0.14697696 -0.22402605 0.14606087 -0.12129188
000160 b1 77 93 be b4 f5 bb be 9c 5e 70 3d f2 5f b4 3e
       -0.28802255 -0.36710894 0.058683977 0.3522945
000170 3f 61 01 be cd e7 23 3e b4 d9 58 be 3a 27 ea bd
       -0.12634753 0.16006394 -0.21176797 -0.11433263
000180 0b 84 49 be 68 8e ae bb 14 92 ea bd c9 1f 3b 3f
       -0.19679277 -0.0053270347 -0.114536434 0.73095375
000190 4a 13 5a be 29 58 b6 be 3b fe 0e 3f be a7 34 3e
       -0.2129642 -0.35614136 0.55856675 0.17642114
0001a0 fb 56 c7 3e fb 3d e8 bd 42 6f 8c 3e fe a6 71 be
       0.38933548 -0.11339947 0.27428633 -0.23598859
0001b0 06 7f 56 be b7 45 d5 3d eb 2d 9e 3c dd 76 8c be
       -0.20946893 0.10413688 0.019309005 -0.27434435
0001c0 ce b6 e4 bd 6d 31 1f 3e 53 ec 3c bd 60 25 93 bb
       -0.1116768 0.15546198 -0.046123814 -0.0044905394
0001d0 3f 16 10 bd f7 6a 2e 3c aa 6d e0 bd 52 25 89 3d
       -0.035177466 0.01064562 -0.10958417 0.066965714
0001e0 38 e3 56 3e d3 c8 4c be da 41 5d 3d 52 b2 9b be
       0.20985115 -0.19998483 0.05401788 -0.30409485
0001f0 62 0b f6 3d 54 ba d7 bd 62 f9 59 3d 12 78 43 3d
       0.1201389 -0.10533586 0.053216346 0.04772193
000200 a3 c2 61 3e 8b 7b 18 be 35 08 1c 3e fb dc 86 3e
       0.22046904 -0.14890878 0.15237506 0.2634047
000210 fd ec df 3e 6b c7 85 be 82 29 d7 3f 3d b7 52 3d
       0.43735495 -0.26128706 1.6809542 0.05144428
000220 17 2c f6 be 87 c3 3a 3e 36 79 d4 be a6 46 03 bf
       -0.48080513 0.1823865 -0.41498727 -0.51279676
000230 ca ca 15 be fd 1f 1f 3d 10 8b 66 3e bf 37 ad be
       -0.14628139 0.038848866 0.22513986 -0.33831593
000240 68 c4 4c bf 3b 09 36 be 6e 77 9f bd 57 92 a1 be
       -0.7998719 -0.17776959 -0.07786451 -0.3155696
000250 44 16 c1 3e 7d d8 fb 3d db d5 27 be b4 16 a1 bd
       0.377123 0.12297151 -0.16390173 -0.078656584
000260 c5 42 ea 3b c0 d2 8e 3d 94 f4 83 bd e8 17 7f 3e
       0.007149073 0.06973791 -0.06443134 0.24911463
000270 b2 d6 08 be 91 dd 05 bd 1a 68 13 be be be 13 bf
       -0.1336315 -0.032682005 -0.1439518 -0.57712924
000280 0f aa 78 3e 15 81 f3 bd 88 3e ac bd 99 72 e9 3d
       0.24283622 -0.11889855 -0.084103644 0.11398811
000290 86 a4 21 3d 27 84 c6 3d 43 9c ac be 66 f1 32 3e
       0.039463542 0.09693175 -0.33712968 0.17474899
0002a0 ed 30 ef 3e a5 31 0b bf 96 9a 07 3d 2e b7 21 3e
       0.46717015 -0.54372627 0.03310641 0.15792534
0002b0 10 39 81 3e 1c f9 70 3e 1a 0b 01 3f 96 4d e4 3d
       0.25238848 0.23532528 0.50407565 0.11147611
0002c0 25 a5 bf be c0 9f b7 3e 04 cb 1c 3e db 15 78 be
       -0.37430683 0.35864067 0.1531182 -0.24227087
0002d0 89 b1 a6 3d cc 80 0f bf c9 2c 9b bd f3 00 6e be
       0.08139331 -0.56055903 -0.075769015 -0.2324255
0002e0 12 51 94 3e 9e b3 10 be 31 a0 77 bc fa 86 ba 3e
       0.28968102 -0.14131019 -0.015113876 0.36431104
0002f0 41 88 a5 bd 81 3e b9 3e 6a 96 b4 3e e2 f5 18 3e
       -0.08082629 0.361805 0.35271007 0.14937547
000300 3e d6 16 3f 52 ba b1 bd ce e4 38 3e e3 20 50 3e
       0.5892066 -0.08678116 0.18056032 0.20325045
000310 b9 4c be 3d e6 b5 e3 3e bc 42 d1 3d 50 0c 76 c0
       0.092919774 0.44474715 0.10217807 -3.8445015
000320 12 80 bc bf 19 0a 2d 3d 48 ec 1d 3c 40 d8 d0 3e
       -1.4726584 0.042245958 0.009638853 0.40789986
000330 d6 16 60 bf e2 37 72 3e c7 69 2f be 45 ac 3c 3e
       -0.87534845 0.2365413 -0.17130195 0.1842509
000340 06 42 51 3e db 17 f4 bd 5c 94 7c 3e d2 a8 60 3c
       0.20435342 -0.119186126 0.2466597 0.013712125
000350 88 62 62 bc 3b b7 a1 bd 8d bd 22 3f bc 97 8e 3e
       -0.013817437 -0.078962766 0.6357048 0.2785014
000360 7e 00 68 3e 97 3c c5 bd 47 68 93 bd 30 7b 93 3e
       0.22656438 -0.09630697 -0.07197624 0.28804922
000370 f7 ab 8b 3e 65 50 94 bd d6 52 c9 3d a3 33 7c bf
       0.27279636 -0.072418965 0.09830253 -0.9851629
000380 0e d8 6b 3c 65 ac a9 be b4 da 9e 3e 53 ee a6 bd
       0.014394773 -0.3313934 0.31026232 -0.081509255
000390 06 b8 b3 be 9b 49 67 3e f5 88 b8 be ba 8e 37 3e
       -0.35101336 0.22586672 -0.3604199 0.1792554
0003a0 5f 17 37 be 9b 76 08 3e 61 40 f6 be d4 2f 8f be
       -0.17880009 0.13326494 -0.48095992 -0.27966177
0003b0 ba 8b b7 bc ec 93 91 be 8a c1 62 be 5a 0a 79 3e
       -0.022405494 -0.28433168 -0.22144142 0.24320355
0003c0 3b a6 e3 3d 8e f6 90 be d7 38 12 3e 34 52 16 bd
       0.1111569 -0.28313106 0.14279495 -0.03669949
0003d0 76 13 d9 3d 09 a7 83 3d 09 1c 25 be 5a 74 fe bd
       0.10599415 0.06428344 -0.16123976 -0.12424536
0003e0 24 ba d0 3c f9 ea 86 c0 1e 4d 06 3e 80 af 5f 3e
       0.025479384 -4.216183 0.13115355 0.21844292
0003f0 e8 71 e5 be a5 bb 56 3e 00 15 64 3e 82 1d b1 bc
       -0.44813466 0.20970018 0.22273636 -0.021620516

encoder.gcs.4.bias f4 [32]
000000 27 b7 ff 3d fd 6e 38 be 4b e7 f0 bd 5f be 99 3d
       0.124861054 -0.18011089 -0.11762866 0.075070135
000010 c8 83 82 be f9 53 87 bd a0 9a 8c bd 49 7c 85 be
       -0.25491166 -0.066078134 -0.0686543 -0.26071385
000020 4e ef 6a bd 29 c6 1b 3d d9 22 39 be ec 66 fb 3d
       -0.057357125 0.038030777 -0.180797 0.1227549
000030 ea d6 05 be 4b 7d a6 be 79 1b 96 be 31 96 d0 bd
       -0.13070264 -0.32517466 -0.29317835 -0.10184897
000040 ca ff d7 3d f7 a5 36 be df 2e 88 be fb 45 7a be
       0.10546835 -0.17836748 -0.2659826 -0.24440758
000050 37 3d 4e be 38 e2 06 be 81 6f 1f 3e c4 61 1e be
       -0.20140539 -0.13172233 0.15569879 -0.15466982
000060 20 8c 27 be 48 30 3b be d4 2d a9 3c 7d 89 dc bd
       -0.16362047 -0.18280137 0.020651735 -0.10768411
000070 77 cc 6a bb c3 1c 97 be 06 1a 8e bd 85 ac 99 3d
       -0.0035827437 -0.2951413 -0.06938557 0.075036086
